model/model/checkpoint.pth (torch, 127714 bytes, 9 tensors)

lstm.weight_ih_l0 f4 [200, 1]
0.03386842 0.10203836 -0.0047325226 0.06635865 0.11336203 0.25931516 0.09241689 0.07614789
-0.089354455 0.10350496 -0.012990574 0.023259154 -0.0034885888 0.18960547 0.04230982 -0.07281873
0.20786512 0.08543613 0.118489355 -0.07275843 0.21782605 0.23324974 0.12626234 -0.05413877
0.17335546 0.11452962 0.064788625 -0.04680953 0.03727345 -0.20150766 0.22349405 0.070834026
-0.016122766 0.08997536 0.1541164 0.13410152 -0.04734258 0.07144959 0.066797614 0.0899561
-0.034228247 -0.07465089 0.0964169 -0.07177675 -0.024888119 0.12695795 0.0666519 -0.053239908
-0.054110527 -0.15306908 0.13164616 0.09810654 -0.09080338 0.11466473 -0.0048255874 0.10605095
0.1853116 0.06530986 -0.09971827 0.10470339 0.038394567 0.08984076 0.024302687 -0.077041335
0.10783304 -0.06898417 0.10487185 0.15322207 0.14413574 -0.09289119 0.104900055 0.022659259
-0.008486411 -0.055292528 0.08587941 -0.05762985 0.04356022 0.0232982 0.10427131 -0.14265603
0.1312006 0.06894081 0.2392156 0.22704111 0.16942747 -0.0767727 0.0186109 0.058948055
-0.0047743195 0.1158667 -0.07730954 0.04544777 0.0070635495 0.077477165 -0.085206926 0.14221464
0.07897478 -0.1250506 -0.14715792 -0.13686447 -0.01682016 -0.2665412 0.054887988 -0.2075169
0.12519963 -0.2536006 -0.046542868 -0.1435397 0.07361345 0.20053822 0.18750533 0.26096028
-0.095949054 0.21982129 0.076536804 0.13226384 0.19483957 0.19375806 -0.09967218 -0.1204514
0.18039867 0.22775508 0.06902897 0.16224414 -0.14750357 0.05752873 0.13237841 0.08644293
-0.042903896 -0.1469772 -0.24232197 0.11325656 -0.21539295 0.20773749 -0.20899642 0.20028183
-0.005760605 -0.12680964 0.12447637 0.20151296 -0.022420816 0.11246993 -0.22349618 0.084342785
0.1576747 0.10752107 -0.24865389 -0.086960614 -0.054164372 0.011994323 0.07560309 0.028536377
-0.055649027 -0.007321821 0.089359954 0.2220788 0.09072915 0.11762559 0.117543794 0.050403867
-0.0006812421 0.25674933 -0.09212209 0.015292985 -0.06378997 -0.07762041 0.19050753 0.21115318
0.15982902 0.061511528 0.114307076 0.1075151 0.09781682 -0.031068718 -0.014805344 -0.008237584
0.20806462 -0.026515614 -0.0024480065 -0.12218519 0.14348805 -0.09175801 0.1600252 0.1731415
0.03994212 0.10367119 -0.048269108 -0.013090235 0.014412782 0.057619613 -0.005600528 -0.11805919
0.1987074 -0.015017159 -0.119147286 0.14294139 0.047068845 -0.04373271 -0.12597197 -0.09938672
00000000: 9db9 0a3d 7df9 d03d 4713 9bbb 0be7 873d
00000010: 5a2a e83d f5c4 843e 1145 bd3d 6df3 9b3d
00000020: 78ff b6bd 69fa d33d 6bd6 54bc fb89 be3c
00000030: cfa0 64bb f027 423e 104d 2d3d fc21 95bd
00000040: 98da 543e 23f9 ae3d 8caa f23d 5f02 95bd
00000050: cb0d 5f3e 05d9 6e3e ea4a 013e 9dc0 5dbd
00000060: 1884 313e 818e ea3d e6af 843d 5abb 3fbd
00000070: 0cac 183d 0658 4ebe a0db 643e 6e11 913d
00000080: e413 84bc 0045 b83d b1d0 1d3e e951 093e
00000090: 4bea 41bd 2a54 923d 30cd 883d e73a b83d
000000a0: eb32 0cbd 91e2 98bd 3976 c53d b0ff 92bd
000000b0: 2be2 cbbc 4401 023e cb80 883d 1712 5abd
000000c0: 00a3 5dbd 24be 1cbe 40ce 063e 15ec c83d
000000d0: 1ff7 b9bd 58d5 ea3d f61f 9ebb 3e31 d93d
000000e0: 53c2 3d3e 2dc1 853d 1839 ccbd bb6e d63d
000000f0: 9f43 1d3d 6ffe b73d 6e16 c73c d9c7 9dbd
00000100: 92d7 dc3d 9347 8dbd 0dc7 d63d 3fe6 1c3e
00000110: 5298 133e bc3d bebd d7d5 d63d e99f b93c
00000120: 960a 0bbc 6b7a 62bd 8be1 af3d 470d 6cbd
00000130: 346c 323d dedb be3c 328c d53d 6c14 12be
00000140: 7359 063e d730 8d3d eff4 743e 777d 683e
00000150: 657e 2d3e 013b 9dbd e375 983c 8473 713d
00000160: e571 9cbb 854b ed3d 7754 9ebd 7127 3a3d
00000170: 5975 e73b 59ac 9e3d f880 aebd b7a0 113e
00000180: 88bd a13d 440d 00be 91b0 16be 3326 0cbe
00000190: 6fca 89bc 1778 88be 3ad2 603d 4f7f 54be
000001a0: 5534 003e f0d7 81be bca3 3ebd 12fc 12be
000001b0: a6c2 963d e459 4d3e 6601 403e 969c 853e
000001c0: f080 c4bd d518 613e 54bf 9c3d 2c70 073e
000001d0: 0684 473e 8368 463e ee20 ccbd 39af f6bd
000001e0: 6eba 383e a138 693e 105f 8d3d 5423 263e
000001f0: 2d0b 17be 3fa3 6b3d 358e 073e fe08 b13d
00000200: ffbb 2fbd 3181 16be 4023 78be 0ef3 e73d
00000210: f88f 5cbe 23b9 543e 2803 56be ae16 4d3e
00000220: 75c3 bcbb 63da 01be 78ed fe3d 6a59 4e3e
00000230: dcab b7bc a256 e63d 2fdc 64be e9bb ac3d
00000240: 7a75 213e 0234 dc3d 209f 7ebe 6818 b2bd
00000250: 76db 5dbd d683 443c cbd5 9a3d 1fc5 e93c
00000260: 3cf0 63bd e3eb efbb 5a02 b73d a068 633e
00000270: 34d0 b93d afe5 f03d cdba f03d 4974 4e3d
00000280: 6295 32ba a674 833e 82aa bcbd 6e8f 7a3c
00000290: 51a4 82bd 73f7 9ebd 6814 433e 8a38 583e
000002a0: 38aa 233e 83f3 7b3d d419 ea3d e030 dc3d
000002b0: 2f54 c83d d383 febc 1d92 72bc eef6 06bc
000002c0: e40e 553e 4637 d9bc bc6e 20bb 3b3c fabd
000002d0: 88ee 123e a0eb bbbd a5dd 233e 014c 313e
000002e0: 599a 233d 9051 d43d d4b5 45bd 6d78 56bc
000002f0: 9723 6c3c 8b02 6c3d a284 b7bb 04c9 f1bd
00000300: f479 4b3e 880a 76bc 7e03 f4bd 3a5f 123e
00000310: 43cb 403d 1221 33bd ccfe 00be 448b cbbd

lstm.weight_hh_l0 f4 [200, 50]
-0.13039877 -0.045966674 -0.017180752 -0.048636556 -0.1013942 -0.0058005406 0.02517826 0.11428944
-0.014746124 0.03936231 -0.11441059 0.022156348 -0.0973227 0.1371285 0.07473034 0.06909155
0.05130014 -0.001961237 0.05515129 -0.11946779 0.13900886 0.055962324 0.026247423 0.093973435
0.008051017 0.13009496 0.13949859 0.11749458 0.056807388 -0.15838856 -0.069996625 -0.010875043
0.10036332 0.054866925 0.10904896 -0.06537687 0.063278705 -0.11926995 0.18130057 0.102347404
0.12457327 0.10289092 -0.07196346 -0.08189256 0.0049510873 0.12818699 0.002389294 -0.095949546
-0.1489289 -0.05901228 0.10505018 -0.03747907 0.014691555 0.043843135 -0.16563943 -0.18877247
-0.09136561 0.068009965 -0.17948174 0.13494177 0.03612078 0.16248791 -0.09287724 -0.077414535
0.08074999 -0.12169259 -0.06779951 0.12081291 -0.14468072 0.08208576 0.12090751 -0.022372382
-0.111706704 0.1292713 -0.020252861 -0.108279325 0.12642172 -0.10332 -0.061928198 0.13370533
-0.21032165 0.11422185 -0.045427516 0.08782713 -0.19137295 0.07568032 0.023773478 -0.029572181
0.0662098 0.049325187 0.021232072 -0.08629261 -0.0059669893 -0.027512416 0.054441057 0.12023011
-0.021955263 0.17200439 -0.05258592 0.20191583 -0.06727656 -0.063744076 -0.115591995 -0.034489397
0.030806104 -0.03181396 0.11527459 -0.11263498 -0.08388872 0.1373747 0.08904622 0.085620165
0.020349795 0.105761215 0.11416385 0.1316937 0.11080465 0.009278109 0.054503046 0.104289785
0.09952438 0.034222264 0.12885456 -0.054676905 -0.046840172 -0.012377073 0.016045319 0.08660052
-0.09703327 -0.062772006 0.008055886 -0.03267171 0.043573286 0.06962028 -0.10816305 0.027465414
0.080818295 -0.005742254 0.08722932 -0.10152466 -0.09604226 -0.11238439 -0.1266361 -0.031614505
0.07408072 -0.021922106 0.1070756 -0.0062566316 0.102294296 -0.04763045 0.004996247 -0.07660901
0.16418198 0.24032228 -0.16192168 0.04750946 -0.029428765 -0.12937745 -0.1631603 0.038568337
-0.17337027 -0.15242134 0.15411839 0.04679047 -0.033633396 -0.075065315 -0.0023270138 0.071001254
-0.17392088 -0.01966733 0.18330298 -0.028611094 0.0520213 -0.1100686 -0.01552936 -0.08303123
0.055814616 0.05449931 -0.08256544 0.06040798 0.0009619478 0.09468749 0.08514751 -0.058374554
0.021932002 -0.20501779 -0.058306444 -0.035191648 -0.16169082 -0.07488049 -0.19722511 -0.024064802
0.018990455 -0.017104864 0.010607677 0.07172762 -0.032743912 0.041866 0.043988828 0.030772181
0.099652834 -0.086860776 0.09056293 0.11703745 -0.0054048533 0.07478033 0.011407636 0.015891222
-0.04434356 -0.16451684 0.11039383 -0.10976044 0.094371796 0.018151378 0.09742734 0.12244082
-0.089731395 -0.019104704 0.037789542 -0.07061515 0.07994657 -0.10485098 0.088748574 0.08986476
0.0028887326 0.072679356 -0.048353475 -0.09441489 -0.1120143 0.037945617 0.036647234 0.065823205
0.047729436 0.03421284 -0.03815102 0.10029615 0.031257045 0.011160479 0.010100348 -0.071555465
-0.10591225 -0.034390185 -0.018054916 -0.027753407 0.01185148 -0.08593236 -0.06822895 -0.036628358
0.05405634 0.059205707 -0.07049524 0.0064090593 0.19871283 -0.11126722 -0.09759764 -0.16673368
00000000: 4187 05be 8d47 3cbd a6be 8cbc 2037 47bd
00000010: c3a7 cfbd 7612 bebb a342 ce3c 9510 ea3d
00000020: ba99 71bc 603a 213d 1950 eabd 3b81 b53c
00000030: 2051 c7bd 6a6b 0c3e 380c 993d df7f 8d3d
00000040: 1820 523d 1988 00bb 52e6 613d 87ab f4bd
00000050: 5758 0e3e c038 653d d604 d73c 2575 c03d
00000060: 6ae8 033c 9d37 053e b8d8 0e3e 00a1 f03d
00000070: ddae 683d 9c30 22be 645a 8fbd 3d2d 32bc
00000080: 498b cd3d 24bc 603d 1055 df3d 4fe4 85bd
00000090: 4498 813d ce43 f4bd dba6 393e 849b d13d
000000a0: 4520 ff3d 7ab8 d23d 9461 93bd 49b7 a7bd
000000b0: bb3c a23b 7343 033e b495 1c3b 3281 c4bd
000000c0: d180 18be dcb6 71bd 8c24 d73d a783 19bd
000000d0: d9b4 703c dc94 333d 629d 29be 924d 41be
000000e0: e51d bbbd cf48 8b3d 10ca 37be 2d2e 0a3e
000000f0: 62f3 133d 3b63 263e 6c36 bebd 838b 9ebd
00000100: 4060 a53d f739 f9bd 78da 8abd c26c f73d
00000110: 2f27 14be 941c a83d 5b9e f73d 4946 b7bc
00000120: 7cc6 e4bd b25f 043e 54e9 a5bc 8dc1 ddbd
00000130: b274 013e 7099 d3bd 6ca8 7dbd 0dea 083e
00000140: 8f5e 57be 25ed e93d 3412 3abd b6de b33d
00000150: 45f7 43be 49fe 9a3d 99c0 c23c 5c41 f2bc
00000160: 0199 873d 3509 4a3d e2ee ad3c 2eba b0bd
00000170: bc86 c3bb b861 e1bc 96fd 5e3d 343b f63d
00000180: 86db b3bc eb21 303e 5564 57bd 06c3 4e3e
00000190: 4bc8 89bd 418c 82bd 7fbb ecbd c144 0dbd
000001a0: 155d fc3c 5b4f 02bd 1615 ec3d 2bad e6bd
000001b0: d9cd abbd f4ab 0c3e dd5d b63d a059 af3d
000001c0: 9db4 a63c 5699 d83d bdce e93d b7da 063e
000001d0: 8ced e23d 3603 183c 963e 5f3d e295 d53d
000001e0: 70d3 cb3d a52c 0c3d 73f2 033e e4f4 5fbd
000001f0: 7bdb 3fbd 35c9 4abc 7971 833c 9d5b b13d
00000200: 61b9 c6bd 9c8e 80bd d6fc 033c c5d2 05bd
00000210: e779 323d 1495 8e3d 9784 ddbd 26ff e03c
00000220: 1084 a53d 8529 bcbb 49a5 b23d 29ec cfbd
00000230: ceb1 c4bd c929 e6bd e5ac 01be 367e 01bd
00000240: a2b7 973d fd95 b3bc 744a db3d 6e04 cdbb
00000250: ac7f d13d 2618 43bd 8fb7 a33b 2fe5 9cbd
00000260: 521f 283e 0b17 763e ccce 25be 4899 423d
00000270: 9814 f1bc 867b 04be 7e13 27be d5f9 1d3d
00000280: fa87 31be 5714 1cbe 36d1 1d3e 5da7 3f3d
00000290: 2cc3 09bd d8bb 99bd d080 18bb 1b69 913d
000002a0: 5118 32be 611d a1bc c7b3 3b3e d061 eabc
000002b0: 4914 553d a56b e1bd db6e 7ebc 470c aabd
000002c0: de9d 643d ab3a 5f3d 1218 a9bd 5c6e 773d
000002d0: 392b 7c3a 84eb c13d d161 ae3d 281a 6fbd
000002e0: beaa b33c 2ff0 51be bdd2 6ebd 1e25 10bd
000002f0: 4792 25be f15a 99bd 61f5 49be 8c23 c5bc
00000300: df91 9b3c 801f 8cbc d2cb 2d3c eee5 923d
00000310: 7b1e 06bd af7b 2b3d a12d 343d f115 fc3c
00000320: c916 cc3d 10e4 b1bd 0f79 b93d 55b1 ef3d
00000330: 321b b1bb 6e26 993d 18e7 3a3c 4f2e 823c
00000340: 98a1 35bd 1a77 28be 2916 e23d 15ca e0bd
00000350: 0046 c13d 33b2 943c fc87 c73d 41c2 fa3d
00000360: 18c5 b7bd 7881 9cbc 35c9 1a3d ad9e 90bd
00000370: 07bb a33d 1cbc d6bd d0c1 b53d 040b b83d
00000380: e450 3d3b ead8 943d 4b0e 46bd 985c c1bd
00000390: c167 e5bd dd6c 1b3d 691b 163d 51ce 863d
000003a0: f17f 433d c322 0c3d 3e44 1cbd 1168 cd3d
000003b0: 6307 003d 71da 363c ee7b 253c ac8b 92bd
000003c0: 86e8 d8bd b9dc 0cbd e7e7 93bc 1d5b e3bc
000003d0: b62c 423c 4efd afbd 9fbb 8bbd 9e07 16bd
000003e0: 2e6a 5d3d af81 723d cf5f 90bd 1603 d23b
000003f0: 607b 4b3e 11e0 e3bd 45e1 c7bd 3cbc 2abe

lstm.bias_ih_l0 f4 [200]
-0.01757255 -0.015430083 -0.054726895 -0.0051345606 0.036753528 0.011888636 0.012399213 0.037143823
-0.110156655 0.11827573 0.09800072 -0.027039858 0.0025038742 0.109763354 -0.10313971 0.029800119
-0.074601546 0.07237582 -0.0010016517 -0.13274388 -0.14262167 0.09646375 -0.072365165 0.016737755
0.010374761 0.084293626 -0.042171873 0.17653264 -0.1583249 -0.059079446 0.008505499 0.015076593
0.11486932 0.013923604 -0.07622633 0.015669093 -0.15404028 -0.08545634 0.054927293 0.10971633
-0.019947829 -0.082434826 -0.06863547 -0.13492583 -0.023243258 -0.039044067 0.14320695 -0.09229457
-0.05177824 -0.04286251 -0.022142934 0.15380709 0.046122406 0.15501456 -0.14084989 -0.04888826
-0.113944806 -0.15837672 -0.0875078 0.087310955 0.025689313 -0.05998575 -0.13519092 -0.063474305
-0.079810515 0.05362313 0.009224534 0.059782825 -0.12579407 -0.021626187 0.0516693 0.13884479
-0.0362113 -0.13091893 -0.12181051 -0.10706006 0.0811531 0.13444908 -0.07694456 0.115282655
-0.032492537 -0.09644122 -0.07518825 -0.12513302 0.10426723 0.11054989 0.002736367 0.010498953
0.041493777 -0.046866376 0.045899738 -0.054309826 0.14091364 0.08971367 0.04168392 -0.15844636
0.17352001 -0.06680696 -0.13792288 -0.058563918 0.05310475 0.0140229035 0.07777619 0.022107054
-0.053006507 0.066175364 -0.077325106 0.043757036 0.07191442 -0.05827223 -0.02713587 0.016663764
0.03316223 -0.124904 -0.050930977 -0.050888125 -0.04762791 -0.15179315 -0.013503369 0.06245833
0.031485517 -0.07010838 -0.11415445 -0.02682542 -0.052120205 0.05583541 0.049079463 0.025412818
-0.029386146 -0.030372016 -0.013838267 -0.12997892 0.014267409 0.093461044 -0.10086265 -0.08386892
-0.06073529 0.08747452 -0.055454932 0.024195053 0.0634379 -0.05064637 0.09613468 -0.13142125
0.04066332 -0.005172797 0.1229215 0.07001095 0.078890674 0.0077795745 0.06539305 0.1618243
0.05165022 0.13637814 -0.06897263 0.088517174 0.00959038 -0.14851853 -0.073927894 -0.100297354
0.07054461 0.14161293 -0.024660187 0.1232914 -0.055009156 -0.111543715 -0.107303 0.120898776
-0.09449486 -0.056738865 -0.05377146 -0.0028198687 -0.033504065 -0.10853483 -0.087071076 -0.019470904
0.112418555 0.11836595 0.10690231 0.0980892 0.07588652 0.07801127 0.09510751 -0.13981347
0.06316045 0.12418397 -0.015766686 -0.09599206 -0.08641722 0.09228359 -0.028354796 0.15314998
0.112911254 -0.072339505 -0.06522796 -0.004809704 0.12440871 0.122937635 -0.1368703 0.017675404
00000000: 4ff4 8fbc 75ce 7cbc 4f29 60bd d13f a8bb
00000010: de8a 163d 8ec8 423c 1226 4b3c 1f24 183d
00000020: d099 e1bd 8c3a f23d 9ab4 c83d b182 ddbc
00000030: 0a18 243b 9ccb e03d ea3a d3bd 611f f43c
00000040: b2c8 98bd c639 943d db49 83ba 03ee 07be
00000050: 6a0b 12be c98e c53d 3034 94bd 9e1d 893c
00000060: e7fa 293c 23a2 ac3d 6abc 2cbd f9c4 343e
00000070: ec1f 22be 4afd 71bd a65a 0b3c d003 773c
00000080: 9b40 eb3d d41f 643c 8d1c 9cbd 785c 803c
00000090: bcbc 1dbe bc03 afbd 71fb 603d f5b2 e03d
000000a0: a169 a3bc 97d3 a8bd c190 8cbd ff29 0abe
000000b0: a568 bebc acec 1fbd d8a4 123e ef04 bdbd
000000c0: 6b15 54bd 9990 2fbd 1965 b5bc 9b7f 1d3e
000000d0: d9ea 3c3d 23bc 1e3e f43a 10be 0e3f 48bd
000000e0: e55b e9bd 822d 22be 4a37 b3bd 16d0 b23d
000000f0: 6572 d23c 9eb3 75bd 7d6f 0abe d1fe 81bd
00000100: b273 a3bd eda3 5b3d 8022 173c d6de 743d
00000110: 29d0 00be 6729 b1bc 30a3 533d 542d 0e3e
00000120: 4d52 14bd 9d0f 06be ca77 f9bd 4e42 dbbd
00000130: 9933 a63d 05ad 093e 1c95 9dbd 5019 ec3d
00000140: e516 05bd f982 c5bd 4cfc 99bd df22 00be
00000150: 0f8a d53d fb67 e23d 9f54 333b cd03 2c3c
00000160: 61f5 293d f5f6 3fbd 5d01 3c3d fb73 5ebd
00000170: aa4b 103e cdbb b73d c2bc 2a3d c33f 22be
00000180: 3baf 313e 16d2 88bd a83b 0dbe b8e0 6fbd
00000190: 5e84 593d 52c0 653c 2049 9f3d da19 b53c
000001a0: 5a1d 59bd f386 873d a05c 9ebd 943a 333d
000001b0: de47 933d ddae 6ebd 0b4c debc 7282 883c
000001c0: 1ed5 073d abcd ffbd 009d 50bd 1170 50bd
000001d0: 7c15 43bd aa6f 1bbe 3c3d 5dbc 4ed4 7f3d
000001e0: f5f6 003d fb94 8fbd cfc9 e9bd fcc0 dbbc
000001f0: ff7b 55bd acb3 643d 8c07 493d 8b2e d03c
00000200: 37bb f0bc bcce f8bc e6b9 62bc 3219 05be
00000210: dac1 693c 8168 bf3d 1491 cebd 78c3 abbd
00000220: 91c5 78bd d725 b33d b624 63bd b434 c63c
00000230: bbeb 813d 9172 4fbd 42e2 c43d 4b93 06be
00000240: 958e 263d 9180 a9bb 44be fb3d e761 8f3d
00000250: 6f91 a13d cdeb fe3b cbec 853d 45b5 253e
00000260: 2e8f 533d b6a6 0b3e 8641 8dbd 7e48 b53d
00000270: f820 1d3c 3e15 18be 8267 97bd b368 cdbd
00000280: b179 903d fb02 113e 2904 cabc 3480 fc3d
00000290: 4851 61bd 0871 e4bd adc1 dbbd c799 f73d
000002a0: 8586 c1bd 0367 68bd 763f 5cbd 8ccd 38bb
000002b0: 8f3b 09bd 8247 debd 5252 b2bd 7281 9fbc
000002c0: b33b e63d d969 f23d 99ef da3d fee2 c83d
000002d0: 646a 9b3d 5fc4 9f3d bac7 c23d 432b 0fbe
000002e0: 445a 813d 2a54 fe3d 2329 81bc 7c97 c4bd
000002f0: 83fb b0bd 2eff bc3d 5148 e8bc 59d3 1c3e
00000300: 043e e73d bc26 94bd 3d96 85bd b99a 9dbb
00000310: fec9 fe3d bac6 fb3d ba27 0cbe 02cc 903c

lstm.bias_hh_l0 f4 [200]
0.122026734 0.06101089 0.010205833 -0.04886885 -0.15602776 0.17950565 -0.1124183 -0.1241328
-0.018865978 0.10849805 0.07773715 0.04383595 0.082151584 0.1462694 -0.13611372 0.10608817
0.10793379 0.12941948 0.1003766 0.039006926 -0.10882655 -0.02162452 0.11467781 0.105345316
0.10623784 0.023375113 -0.050345533 0.08438484 -0.022122374 0.13005015 0.09543336 0.0350703
-0.12106695 -0.12621807 0.06929857 -0.09380842 -0.0077697523 0.010835081 0.0070783324 0.17151679
-0.15946496 -0.08966067 -0.0784912 -0.022027995 0.0811138 -0.11915342 -0.07494802 0.0677061
-0.12655091 -0.14411545 -0.13973527 0.13325547 0.03642423 0.08932697 0.042810585 0.14316973
-0.15642256 -0.02338577 0.048790462 -0.05263745 -0.0704398 0.15846935 -0.053767607 0.12874909
0.019207587 -0.099177055 0.04972011 0.03655707 -0.1288402 0.11272756 -0.10868535 -0.033468917
-0.055326123 0.08441256 0.076056555 -0.08078267 0.15754415 -0.077776715 -0.097846806 0.013164353
-0.058342814 -0.02448733 0.022368386 -0.12736574 -0.07930544 0.032751065 0.08798968 -0.1429029
0.012582916 0.103063904 0.04178985 0.07058727 0.15149775 0.10203626 0.032728277 0.05738616
0.09532992 -0.09780206 -0.10685999 0.09108069 0.008478064 0.02302674 -0.039635077 0.10472902
-0.07040733 -0.025263423 -0.04837263 -0.06281493 -0.05928177 0.017149096 -0.044609558 -0.065212555
-0.05250092 -0.027196493 0.03800732 -0.097077616 -0.021413378 0.05150893 -0.0771945 0.07096597
0.08889898 -0.03872549 -0.07046729 -0.021786124 -0.08536619 -0.11168823 -0.06950669 -0.13562958
-0.0033270756 0.1239955 0.00087259506 0.0842861 -0.11067662 -0.035043087 0.08279356 -0.03375452
0.017390294 -0.014877547 -0.020436572 -0.062450856 -0.048663784 -0.07421176 0.0038849982 -0.030418105
-0.10475871 -0.013502951 -0.009078289 0.0026601516 -0.050684523 0.05870789 -0.003710818 0.2206324
0.10301957 0.07158437 -0.07711223 0.037239157 -0.14386539 -0.020528184 0.02409893 0.019885993
-0.071578346 -0.032648113 0.009166431 0.010544056 -0.084372826 0.083099216 0.15717044 0.10039563
0.016377136 0.050250042 0.04153698 0.1194724 0.040757965 -0.118438184 -0.0007198965 0.0711465
0.11755381 0.1537947 0.030280564 0.0148912845 0.10909976 0.015552318 -0.08518678 0.13255729
-0.0022568712 0.01888788 0.07532564 -0.11119728 0.05774873 0.13317998 0.067047544 0.16650224
-0.023426967 -0.021425646 -0.019381804 -0.13138846 -0.05041498 -0.10267173 0.08347331 -0.08380003
00000000: 27e9 f93d 8ee6 793d 5e36 273c b42a 48bd
00000010: bec5 1fbe 54d0 373e 913b e6bd 5639 febd
00000020: d38c 9abc 3a34 de3d a834 9f3d 538d 333d
00000030: 173f a83d a5c7 153e 6561 0bbe c144 d93d
00000040: 640c dd3d 8a86 043e 3f92 cd3d bac5 1f3d
00000050: 74e0 debd e825 b1bc 33dc ea3d 49bf d73d
00000060: 3a93 d93d 2a7d bf3c 1e37 4ebd f6d1 ac3d
00000070: fb39 b5bc de2b 053e 9172 c33d e0a5 0f3d
00000080: f3f1 f7bd 4f3f 01be 69ec 8d3d a11e c0bd
00000090: 6899 febb a085 313c 5bf1 e73b 19a2 2f3e
000000a0: c84a 23be 03a0 b7bd ffbf a0bd 0e74 b4bc
000000b0: fe1e a63d b506 f4bd 597e 99bd 7fa9 8a3d
000000c0: 9096 01be 0093 13be c316 0fbe 1f74 083e
000000d0: 9331 153d 0ff1 b63d 275a 2f3d 169b 123e
000000e0: 3c2d 20be 8493 bfbc 82d8 473d 5e9a 57bd
000000f0: be42 90bd ca45 223e 6c3b 5cbd cdd6 033e
00000100: 3b59 9d3c 571d cbbd 50a7 4b3d debc 153d
00000110: afee 03be b5dd e63d 6d96 debd b416 09bd
00000120: a59d 62bd 7ee0 ac3d 8ac3 9b3d 6271 a5bd
00000130: 4153 213e 6649 9fbd e863 c8bd 4caf 573c
00000140: e0f8 6ebd a799 c8bc e83d b73c 2a6c 02be
00000150: e46a a2bd fb25 063d ef33 b43d 2355 12be
00000160: 9328 4e3c 2b13 d33d d52b 2b3d 0f90 903d
00000170: 3a22 1b3e 63f8 d03d 160e 063d c00d 6b3d
00000180: 553c c33d 724c c8bd 69d9 dabd 8388 ba3d
00000190: 94e7 0a3c 93a2 bc3c 6458 22bd 2b7c d63d
000001a0: b831 90bd 3df5 cebc 6122 46bd 1da5 80bd
000001b0: 71d1 72bd 437c 8c3c 83b8 36bd 298e 85bd
000001c0: 340b 57bd 2ecb debc 90ad 1b3d a1d0 c6bd
000001d0: 1c6b afbc 07fb 523d 2618 9ebd 9b56 913d
000001e0: ab10 b63d 9f9e 1ebd 2851 90bd d078 b2bc
000001f0: 78d4 aebd ccbc e4bd 8659 8ebd 7be2 0abe
00000200: 110b 5abb 5af1 fd3d ddbe 643a 319e ac3d
00000210: 6caa e2bd 5789 0fbd ac8f a93d 2e42 0abd
00000220: 1776 8e3c f4c0 73bc 996a a7bc 78cc 7fbd
00000230: ad53 47bd 56fc 97bd 749b 7e3b 642f f9bc
00000240: bc8b d6bd 7b3b 5dbc 1bbd 14bc f055 2e3b
00000250: 939a 4fbd af77 703d 3231 73bb 76ed 613e
00000260: edfb d23d d49a 923d 04ed 9dbd 1688 183d
00000270: 7351 13be b92a a8bc 1f6b c53c f3e7 a23c
00000280: ab97 92bd 07ba 05bd cc2e 163c fac0 2c3c
00000290: a9cb acbd ec2f aa3d 4af1 203e 399c cd3d
000002a0: 5829 863c fdd2 4d3d ae22 2a3d f2ad f43d
000002b0: d3f1 263d b88f f2bd 70b7 3cba 42b5 913d
000002c0: 0dc0 f03d 5c7c 1d3e f20e f83c 93fa 733c
000002d0: b26f df3d 26cf 7e3c 6876 aebd 19bd 073e
000002e0: 04e8 13bb c1ba 9a3c 5444 9a3d 66bb e3bd
000002f0: ef89 6c3d 5560 083e 3950 893d 907f 2a3e
00000300: e9e9 bfbc d684 afbc 97c6 9ebc b28a 06be
00000310: f07f 4ebd 8e45 d2bd 0ef4 aa3d 5a9f abbd

lstm.weight_ih_l1 f4 [200, 50]
-0.05926654 0.002075754 0.10434618 -0.11185485 -0.12146619 0.07525306 -0.009494196 -0.0894729
0.12905718 0.12787332 -0.044811577 0.08639898 -0.03444766 -0.012118361 -0.080155335 0.021119287
-0.01247047 -0.095736615 -0.1056268 0.07186685 0.12945426 0.1091712 0.059522428 -0.025978668
-0.104784444 0.07842585 0.053166833 -0.04981167 -0.0021987525 0.0037734658 0.073236026 -0.041657634
-0.13965607 -0.011011293 -0.023871483 -0.08084745 -0.017756118 -0.16381547 -0.1081923 0.09965857
0.020246 -0.11561053 -0.056874402 -0.036635138 0.0033645919 0.09034738 0.10973041 0.07803925
0.07083758 -0.038282976 0.033798363 -0.099209756 -0.09617426 -0.049759354 0.061959635 -0.16216786
-0.13680635 -0.112016425 -0.10403221 0.07164949 0.013740274 -0.049166907 -0.018456029 0.1458919
0.114373095 -0.10837885 0.14580715 0.028935984 0.084920056 0.08827114 0.05692061 -0.024905717
-0.12751578 -0.013141192 0.07443312 -0.0017821597 -0.09364075 0.04617952 0.034167588 0.072356336
-0.17273144 0.07114783 0.053312663 0.055173617 0.080703355 0.10551256 -0.13890617 0.09279244
0.09307227 -0.037454076 0.011649124 0.15135357 -0.16542512 0.008000536 0.020519672 0.110451
0.097686596 0.008034618 -0.012016919 -0.10682288 0.035949823 0.0045971065 -0.05963075 -0.014299579
-0.04973127 -0.00070683856 0.13080977 0.14043279 0.06274782 -0.10300026 0.10726536 -0.07043552
-0.070501976 0.17288904 -0.028406525 -0.06375205 0.08157997 0.17508285 -0.08813445 0.0009894315
0.06731969 0.1452201 0.069092795 -0.09321308 0.021624265 0.067887165 -0.0030474174 0.010918536
-0.099171676 -0.06476783 -0.01083829 0.13099873 -0.09619476 -0.090508424 -0.1526945 -0.08236585
0.0031337782 -0.010091341 -0.08158631 -0.09633325 -0.10153981 -0.022660706 0.118608706 -0.079664014
0.05508827 -0.05531115 0.1154824 -0.100397125 -0.012803668 -0.13682145 0.09743933 -0.164494
0.024305347 -0.050751418 0.057176493 -0.031604115 0.07567645 -0.11800753 -0.020996159 0.11152417
-0.07036583 0.23398595 -0.06345363 0.020507675 0.09380536 -0.042771585 -0.0593717 0.054386806
-0.042083196 -0.10685008 0.14948113 -0.034494627 -0.07100023 0.007490118 0.023030648 -0.0063676857
0.17692836 0.1722976 0.1081319 -0.040092323 0.051429354 -0.08082339 -0.086198054 0.11303333
0.023976743 -0.032123726 -0.11448132 0.09937431 0.06704224 0.0097010005 0.016746692 0.09485578
-0.14965531 -0.08737517 0.030035043 0.0129687525 -0.10432584 0.01369421 -0.09072403 0.017309798
0.013319813 0.028745245 -0.05242953 -0.071761675 -0.02921475 -0.107031524 -0.04755532 -0.11528906
-0.018250922 -0.033128 -0.049536746 0.089692466 0.019529158 0.12245779 -0.1416902 0.08346394
0.0714695 0.056263976 0.10816354 -0.046904795 0.060571004 0.031125685 -0.054032058 -0.12704708
0.13762788 0.074227266 -0.10102927 0.01599187 0.13603158 0.13383798 0.013361757 0.06732011
-0.0025018528 0.14013806 -0.028096361 -0.007947974 0.13593772 -0.13136035 -0.05866903 -0.0219958
0.01825736 -0.059678223 -0.09656181 0.0024046951 -0.113851465 0.08842155 -0.080832705 -0.039435584
0.066714086 0.098309144 0.10574664 0.03347038 -0.060014714 -0.034116007 -0.10120929 -0.21113849
00000000: 79c1 72bd 6009 083b 73b3 d53d 2814 e5bd
00000010: 44c3 f8bd 471e 9a3d 8b8d 1bbc 913d b7bd
00000020: 9127 043e 39f1 023e 588c 37bd f3f1 b03d
00000030: fd18 0dbd 178c 46bc 7b28 a4bd 5b02 ad3c
00000040: f150 4cbc 8f11 c4bd dd52 d8bd ed2e 933d
00000050: a88f 043e 2695 df3d cacd 733d 37d1 d4bc
00000060: 3a99 d6bd bb9d a03d 77c5 593d 5207 4cbd
00000070: f218 10bb 404c 773b c5fc 953d 32a1 2abd
00000080: 0002 0fbe b668 34bc 218e c3bc 5993 a5bd
00000090: 4775 91bc 3ebf 27be ed93 ddbd cb19 cc3d
000000a0: f0da a53c 37c5 ecbd 22f5 68bd ba0e 16bd
000000b0: 7c80 5c3b 0c08 b93d 56ba e03d 0bd3 9f3d
000000c0: 4b13 913d 9cce 1cbd 2770 0a3d 7c2e cbbd
000000d0: 03f7 c4bd 77d0 4bbd 63c9 7d3d 550f 26be
000000e0: f716 0cbe de68 e5bd d70e d5bd f8bc 923d
000000f0: e31e 613c 3d63 49bd 1931 97bc b064 153e
00000100: 713c ea3d bbf5 ddbd 784e 153e 280b ed3c
00000110: 91ea ad3d 80c7 b43d 9625 693d 1307 ccbc
00000120: 7f93 02be 274e 57bc 6470 983d 5b97 e9ba
00000130: b9c6 bfbd bd26 3d3d 50f3 0b3d 8f2f 943d
00000140: 83e0 30be f4b5 913d 615e 5a3d bbfd 613d
00000150: cd47 a53d f816 d83d 6b3d 0ebe f609 be3d
00000160: ad9c be3d 7269 19bd f8db 3e3c 6efc 1a3e
00000170: 3465 29be ae14 033c df18 a83c 2234 e23d
00000180: e90f c83d a1a3 033c 9de2 44bc f4c5 dabd
00000190: 1f40 133d 53a3 963b 603f 74bd c848 6abc
000001a0: 04b3 4bbd 224b 39ba fff2 053e 9dcd 0f3e
000001b0: ee81 803d cdf1 d2bd f1ad db3d 7f40 90bd
000001c0: 5763 90bd d309 313e cdb4 e8bc 6f90 82bd
000001d0: 6613 a73d eb48 333e d67f b4bd d0af 813a
000001e0: e8de 893d 94b4 143e 8680 8d3d 80e6 bebd
000001f0: 5f25 b13c 6d08 8b3d 2eb7 47bb a9e3 323c
00000200: 851a cbbd ffa4 84bd 1593 31bc 8824 063e
00000210: c201 c5bd 7b5c b9bd f25b 1cbe 6daf a8bd
00000220: 1360 4d3b 2756 25bc b916 a7bd 5e4a c5bd
00000230: 1bf4 cfbd f2a2 b9bc 1fe9 f23d e326 a3bd
00000240: 3da4 613d f28d 62bd 0982 ec3d 029d cdbd
00000250: 7ac6 51bc ec1a 0cbe 458e c73d 1d71 28be
00000260: 021c c73c b8e0 4fbd e631 6a3d 5173 01bd
00000270: 41fc 9a3d efad f1bd 2300 acbc c966 e43d
00000280: f61b 90bd 039a 6f3e faf3 81bd b6ff a73c
00000290: 061d c03d 4231 2fbd bd2f 73bd b3c4 5e3d
000002a0: 6e5f 2cbd 37d4 dabd 9511 193e 3d4a 0dbd
000002b0: 9268 91bd aa6f f53b c5aa bc3c 05a8 d0bb
000002c0: b52c 353e c86e 303e 4274 dd3d d937 24bd
000002d0: 96a7 523d bc86 a5bd 9b88 b0bd 057e e73d
000002e0: e06a c43c 2b94 03bd 2f75 eabd c284 cb3d
000002f0: 714d 893d f2f0 1e3c 5c30 893c bf43 c23d
00000300: 3e3f 19be c1f1 b2bd 0d0c f63c e47a 543c
00000310: c9a8 d5bd ae5d 603c 85cd b9bd 47cd 8d3c
00000320: 583b 5a3c 267b eb3c 59c0 56bd c9f7 92bd
00000330: c553 efbc 5833 dbbd 5ec9 42bd ac1c ecbd
00000340: f582 95bc 3ab1 07bd 0be7 4abd afb0 b73d
00000350: 9dfb 9f3c 26cb fa3d 3c17 11be 24ef aa3d
00000360: 9a5e 923d 0e75 663d d984 dd3d 3e1f 40bd
00000370: 4d19 783d 4bfb fe3c b850 5dbd a118 02be
00000380: 53ee 0c3e 7704 983d 6fe8 cebd 6201 833c
00000390: dd4b 0b3e d30c 093e 45eb 5a3c 20df 893d
000003a0: 20f6 23bb 5a80 0f3e 572a e6bc 3838 02bc
000003b0: 4233 0b3e 5483 06be f04e 70bd 8930 b4bc
000003c0: 7690 953c 2771 74bd 33c2 c5bd 1798 1d3b
000003d0: f52a e9bd 5c16 b53d 9e8b a5bd 3587 21bd
000003e0: 65a1 883d 4e56 c93d b291 d83d 3d18 093d
000003f0: fdd1 75bd 3abd 0bbd d146 cfbd b034 58be

lstm.weight_hh_l1 f4 [200, 50]
0.106818214 0.11007322 0.10391747 0.09506873 0.10043365 -0.097358264 0.044588063 -0.11574837
-0.09214872 0.001113467 0.024965467 -0.067820765 -0.16488466 0.033864 -0.06442699 0.011462297
0.037030682 -0.053551517 0.042392317 -0.057778314 -0.06378053 0.058902312 -0.06685588 0.029522933
0.0627878 -0.004408833 0.06950058 0.08520934 -0.13953517 -0.04760455 -0.09209198 0.09328554
0.14580323 -0.09421434 0.09624921 -0.1437823 0.11401741 0.06846171 0.079279475 -0.08938615
-0.09689964 -0.0469004 0.06729752 0.06657759 0.11566728 0.113482036 -0.016863137 -0.13926905
-0.04753286 0.12796232 -0.08450241 0.019758003 0.016677473 -0.117917895 0.072895974 -0.11282888
-0.16961582 -0.085816465 -0.1413287 -0.012840248 -0.045322496 -0.08703384 -0.03685944 -0.07938057
-0.07099912 -0.07394355 -0.06847935 0.094492525 -0.099338114 -0.049673017 -0.06016739 0.0601482
-0.16289358 -0.040527645 -0.045907505 -0.08595075 -0.042914953 0.16878784 0.11821699 0.0866538
-0.09303317 0.106134236 -0.060141433 0.08217461 -0.13178283 0.07255421 -0.06738146 -0.03869928
0.13394044 -0.12586673 -0.02354277 -0.05858114 0.084862426 -0.0672624 -0.13071808 -0.08223246
0.17112546 -0.07384736 0.03991459 -0.028252298 -0.093951516 0.0015764191 -0.07676825 -0.032835294
0.020659804 -0.05845256 0.10018572 -0.051063374 -0.16758367 -0.14969277 -0.07536737 -0.038413588
0.16886874 -0.066954456 0.08703264 0.16414924 0.12884709 -0.013909126 0.07448896 0.08497098
-0.11107314 0.0490152 0.08165142 0.02414292 0.008498591 0.02703147 -0.13142315 0.12591878
-0.084174246 -0.11123037 0.04080733 -0.042297173 -0.05769706 -0.111991666 0.05816882 0.019688534
0.09968111 -0.19188824 -0.010448903 0.09153535 0.17246978 0.09655822 0.123596095 0.06212581
0.031556983 0.012469004 0.04806686 0.13075183 0.017194139 -0.071697704 0.0631221 0.027313244
-0.13181125 0.10976627 -0.05352458 0.057369173 0.09118342 0.12043419 0.07279621 -0.12516408
0.07086298 -0.027987003 0.07898527 -0.096592814 5.173807e-05 0.07804223 -0.07962242 0.07799305
-0.019327296 -0.1018455 -0.106882215 -0.07714443 -0.139019 -0.017407183 -0.11570086 -0.03689755
0.012779856 -0.08307792 -0.042372786 0.02156249 0.060506303 -0.022169257 -0.12857835 0.05275751
-0.021725425 0.13921896 -0.008536549 0.09954497 -0.0037272777 -0.08978746 0.05749867 0.115122326
-0.10351696 -0.06757736 -0.08004063 -0.0057814964 0.1118728 0.003528352 -0.08445444 0.051407784
-0.08313008 -0.12999572 -0.1478047 0.0147239845 -0.09834621 -0.015634943 0.11632621 -0.037054244
-0.07668598 -0.04151919 0.11220067 -0.1781521 0.16624095 -0.0072323177 0.028883558 -0.066722676
0.10584573 -0.12260796 0.041254647 0.08848879 0.17518644 -0.0940633 0.05625934 0.10075833
-0.036095917 0.045961715 -0.09179147 -0.0032034086 0.061594684 -0.09833415 0.17724344 0.061250634
0.018610325 -0.124184445 0.010064104 0.0032665073 0.14106554 0.13808787 -0.095963016 -0.113541976
0.108510114 -0.14000066 0.16359223 -0.1627769 0.06520355 -0.14161865 0.10905134 0.1470692
-0.051890124 -0.17250152 0.07387275 -0.14374548 -0.17549555 0.1384876 0.036778167 -0.10503601
00000000: 82c3 da3d 126e e13d afd2 d43d 65b3 c23d
00000010: 28b0 cd3d c563 c7bd f9a1 363d 7b0d edbd
00000020: 78b8 bcbd c1f1 913a 6184 cc3c 9de5 8abd
00000030: 86d7 28be fab4 0a3d 4cf2 83bd 5ccc 3b3c
00000040: 7cad 173d d658 5bbd 91a3 2d3d f4a8 6cbd
00000050: 5e9f 82bd 8d43 713d bceb 88bd 14da f13c
00000060: e496 803d f977 90bb 5256 8e3d 3c82 ae3d
00000070: 4fe2 0ebe fdfc 42bd b89a bcbd 7d0c bf3d
00000080: 714d 153e 73f3 c0bd 4e1e c53d ab3b 13be
00000090: f681 e93d a735 8c3d 475d a23d 1610 b7bd
000000a0: 5273 c6bd a21a 40bd 48d3 893d d559 883d
000000b0: f8e2 ec3d 4569 e83d 9024 8abc 8c9c 0ebe
000000c0: d1b1 42bd 8e08 033e 990f adbd 89db a13c
000000d0: 329f 883c f07e f1bd 7c4a 953d d412 e7bd
000000e0: c5af 2dbe 8bc0 afbd 79b8 10be e75f 52bc
000000f0: 15a4 39bd cc3e b2bd edf9 16bd 4892 a2bd
00000100: fd67 91bd b76f 97bd e73e 8cbd 4c85 c13d
00000110: c871 cbbd ef75 4bbd 1572 76bd f55d 763d
00000120: 93cd 26be 5100 26bd 8209 3cbd f206 b0bd
00000130: 97c7 2fbd b8d6 2c3e c01b f23d 8c77 b13d
00000140: 2d88 bebd e85c d93d dd56 76bd 294b a83d
00000150: 14f2 06be 4d97 943d 4aff 89bd 2383 1ebd
00000160: af27 093e 35e3 00be c4dc c0bc c7f2 6fbd
00000170: 5acc ad3d dfc0 89bd f6da 05be 7e69 a8bd
00000180: 833b 2f3e 493d 97bd 7b7d 233d 5d71 e7bc
00000190: a769 c0bd d99f ce3a ac38 9dbd 4d7e 06bd
000001a0: c03e a93c f46b 6fbd 2c2e cd3d d427 51bd
000001b0: 0e9b 2bbe 1049 19be 355a 9abd 9157 1dbd
000001c0: edeb 2c3e 6b1f 89bd 2b3e b23d bd16 283e
000001d0: 7ef0 033e 1ae3 63bc ab8d 983d 4405 ae3d
000001e0: 507a e3bd 2ac4 483d dc38 a73d 5fc7 c53c
000001f0: ad3d 0b3c 1a71 dd3c ca93 06be daf0 003e
00000200: 8c63 acbd c0cc e3bd 9625 273d cd3f 2dbd
00000210: c153 6cbd e35b e5bd 6e42 6e3d d949 a13c
00000220: 9c25 cc3d 5a7e 44be e031 2bbc e376 bb3d
00000230: eb9b 303e 51c0 c53d f31f fd3d a277 7e3d
00000240: e541 013d cb4a 4c3c c1e1 443d cfe3 053e
00000250: b9da 8c3c 3fd6 92bd 2946 813d 06c0 df3c
00000260: 87f9 06be 23cd e03d 973c 5bbd f0fb 6a3d
00000270: 5fbe ba3d 33a6 f63d 2e16 953d 032b 00be
00000280: 9c20 913d 0045 e5bc 07c3 a13d 74d2 c5bd
00000290: 5401 5938 9bd4 9f3d 1411 a3bd d2ba 9f3d
000002a0: 4754 9ebc 6094 d0bd 10e5 dabd e6fd 9dbd
000002b0: ff5a 0ebe 8299 8ebc 93f4 ecbd e321 17bd
000002c0: 9a62 513c c224 aabd 168f 2dbd d2a3 b03c
000002d0: 75d5 773d 4d9c b5bc 0baa 03be 4218 583d
000002e0: 85f9 b1bc 6a8f 0e3e e2dc 0bbc 3cde cb3d
000002f0: 5845 74bb 7de2 b7bd ba83 6b3d 41c5 eb3d
00000300: b300 d4bd 0066 8abd 58ec a3bd b572 bdbb
00000310: 911d e53d ec3b 673b 73f6 acbd f890 523d
00000320: 1a40 aabd 991d 05be 1e5a 17be de3c 713c
00000330: bd69 c9bd da14 80bc 703c ee3d 31c6 17bd
00000340: 8a0d 9dbd 0710 2abd 77c9 e53d 816d 36be
00000350: 113b 2a3e 14fd ecbb 369d ec3c e6a5 88bd
00000360: a5c5 d83d e219 fbbd a2fa 283d 9c39 b53d
00000370: 1364 333e 42a4 c0bd 3270 663d 625a ce3d
00000380: 50d9 13bd 5a42 3c3d 2bfd bbbd 47f0 51bb
00000390: b54a 7c3d 6a63 c9bd 4e7f 353e f2e1 7a3d
000003a0: ae74 983c 6a54 febd e9e3 243c e612 563b
000003b0: 7c73 103e e866 0d3e 4288 c4bd b288 e8bd
000003c0: 8d3a de3d 555c 0fbe b984 273e fdae 26be
000003d0: 7089 853d 7b04 11be 4f56 df3d 4f99 163e
000003e0: bd8a 54bd 3da4 30be 994a 973d 0432 13be
000003f0: 1bb5 33be b2cf 0d3e b4a4 163d 1f1d d7bd

lstm.bias_ih_l1 f4 [200]
0.06931761 0.010104222 -0.12729006 0.115491934 -0.03253079 0.12357309 -0.08684057 -0.011298198
-0.08355488 0.044597793 -0.07433601 0.08714079 0.026788855 -0.11897973 0.04204547 0.053498194
0.015124386 -0.067709126 -0.01681787 -0.08767207 -0.121433415 0.14614373 0.09997709 -0.1064712
0.12868112 0.3304304 0.0707974 -0.060562722 0.0012046656 -0.12194081 0.0018096733 0.0054764813
-0.086895905 0.07798104 -0.09162393 -0.06900461 -0.043891527 -0.0781028 -0.03775031 -0.04643263
-0.025383318 -0.015398406 0.06303173 -0.058961276 0.024989275 0.08023706 -0.007076803 0.02553454
0.117673434 0.15722433 0.05151739 -0.07313733 -0.13662845 0.098261364 -0.12659904 0.119321294
0.042676646 -0.046764664 0.054214068 0.0031063706 0.0651949 0.104797356 0.13303643 -0.012315189
0.034783274 0.039215475 -0.016824706 0.024454525 0.13276273 0.04500966 0.057906915 -0.023432584
-0.031579766 0.011597502 -0.120229624 -0.04278771 0.10674033 0.106266946 -0.0012340791 0.03419542
0.102377035 -0.033594914 0.025898047 0.09462411 -0.07758516 -0.13379519 -0.057386845 0.06754724
0.07269715 -0.04340505 0.084658414 -0.07409323 -0.010187559 -0.004934434 0.027349709 0.008320764
0.13947424 -0.08002514 0.11297884 0.06650016 -0.095254384 0.14814913 -0.020594994 0.022640998
0.07159311 0.06516991 -0.091445394 -0.05760416 -0.08865264 -0.054653842 -0.0040339525 0.08868185
-0.067458965 -0.015216296 0.0024436375 -0.030240364 0.14948484 0.075050466 -0.052169062 0.112893924
-0.10709363 -0.04278252 -0.06697248 0.080120295 0.019118525 0.05916386 0.06884863 0.08179568
0.105098546 0.042411126 0.08691305 0.121142164 0.07391996 0.13052864 -0.105574235 0.033395268
-0.15232855 -0.012061647 -0.02662805 0.0032336998 -0.08112468 0.020146586 -0.038681917 0.107056685
0.14103872 0.105157845 0.11130171 0.07237665 0.05032305 0.15148096 0.08706131 -0.113585055
0.14226684 0.054254204 0.09223687 -0.1166614 0.05379402 0.033959296 0.12900643 0.061082695
0.0870292 0.14267509 -0.09773466 0.12051946 0.12540817 0.06579302 -0.09927657 0.07207054
-0.11577972 0.13093612 -0.083985195 -0.007858301 0.04294928 -0.041237324 0.07283837 0.2469173
0.037463054 -0.1167797 -0.056531243 -0.14299913 0.044276636 0.037082877 0.11879483 0.079656065
0.02986176 -0.11964082 0.08641574 -0.06719559 -0.04055055 -0.048553955 0.09517466 0.10067223
-0.06288024 -0.05336815 -0.008448251 0.05249523 0.11889237 -0.11801436 0.072306976 0.16496275
00000000: 64f6 8d3d 2e8c 253c 5358 02be 0987 ec3d
00000010: 013f 05bd e313 fd3d 78d9 b1bd 141c 39bc
00000020: d21e abbd 2dac 363d 7a3d 98bd df76 b23d
00000030: 4d74 db3c a5ab f3bd df37 2c3d ec20 5b3d
00000040: 46cc 773c 15ab 8abd a1c5 89bc 6a8d b3bd
00000050: 15b2 f8bd b4a6 153e cac0 cc3d 930d dabd
00000060: fcc4 033e 2c2e a93e 3afe 903d 9e10 78bd
00000070: dfe5 9d3a 1abc f9bd 8f32 ed3a 0e74 b33b
00000080: 7bf6 b1bd 86b4 9f3d 54a5 bbbd 4a52 8dbd
00000090: 9ac7 33bd 5cf4 9fbd 12a0 1abd 2430 3ebd
000000a0: adf0 cfbc 9949 7cbc c816 813d 6181 71bd
000000b0: 4fb6 cc3c 5453 a43d 87e4 e7bb d02d d13c
000000c0: c5fe f03d 6aff 203e e603 533d 06c9 95bd
000000d0: 54e8 0bbe 413d c93d 2ea3 01be b95e f43d
000000e0: b5cd 2e3d 4e8c 3fbd 920f 5e3d 4094 4b3b
000000f0: e784 853d ff9f d63d b43a 083e a5c5 49bc
00000100: e878 0e3d 68a0 203d f7d3 89bc db54 c83c
00000110: f4f2 073e 0d5c 383d cd2f 6d3d b1f5 bfbc
00000120: c959 01bd 7303 3e3c f33a f6bd 2a42 2fbd
00000130: ad9a da3d 7ca2 d93d d3c0 a1ba 7f10 0c3d
00000140: 0dab d13d d29a 09bd 2428 d43c 49ca c13d
00000150: f8e4 9ebd 9b01 09be 780e 6bbd 3556 8a3d
00000160: 3ee2 943d 7ec9 31bd 6461 ad3d 31be 97bd
00000170: b8e9 26bc 08b1 a1bb 7f0c e03c d053 083c
00000180: 56d2 0e3e 38e4 a3bd 7361 e73d 3c31 883d
00000190: bb14 c3bd 68b4 173e d5b6 a8bc 9d79 b93c
000001a0: 699f 923d cd77 853d b947 bbbd 57f2 6bbd
000001b0: 848f b5bd b5dc 5fbd 3f2f 84bb d49e b53d
000001c0: ed27 8abd c54d 79bc 6f25 203b a4ba f7bc
000001d0: 8e12 193e 0fb4 993d 3aaf 55bd ee34 e73d
000001e0: e853 dbbd b93c 2fbd de28 89bd 1c16 a43d
000001f0: 749e 9c3c ce55 723d 8300 8d3d 7e84 a73d
00000200: e83d d73d 4ab7 2d3d 78ff b13d 6219 f83d
00000210: 5963 973d 4da9 053e 4e37 d8bd 7ac9 083d
00000220: 04fc 1bbe 379e 45bc 1123 dabc 7bec 533b
00000230: b224 a6bd 740a a53c ee70 1ebd 8940 db3d
00000240: 746c 103e ff5c d73d 27f2 e33d 363a 943d
00000250: 8b1f 4e3d d31d 1b3e 334d b23d 489f e8bd
00000260: 66ae 113e a839 5e3d afe6 bc3d 2cec eebd
00000270: 1e57 5c3d e718 0b3d 431a 043e d931 7a3d
00000280: 5d3c b23d 6b19 123e 1c29 c8bd e8d2 f63d
00000290: 006b 003e 7ebe 863d 8451 cbbd b899 933d
000002a0: eb1d edbd 1e14 063e 6e00 acbd 1ac0 00bc
000002b0: 96eb 2f3d 78e8 28bd 492c 953d e4d7 7c3e
000002c0: dc72 193d 322a efbd 4e8d 67bd 5d6e 12be
000002d0: 6b5b 353d 37e4 173d b44a f33d b822 a33d
000002e0: a6a0 f43c 3f06 f5bd bcfa b03d d79d 89bd
000002f0: 5518 26bd 83e0 46bd efea c23d 3e2d ce3d
00000300: 5bc7 80bd 9098 5abd 886a 0abc 3d05 573d
00000310: d87d f33d 83b1 f1bd ae15 943d ffeb 283e

lstm.bias_hh_l1 f4 [200]
0.0463245 0.01831041 0.111132234 0.04319363 0.04230672 -0.012656639 0.073449254 0.040732633
-0.00011812635 0.004306489 -0.089552015 0.044193227 -0.062882796 0.010283765 -0.12563588 0.08249913
-0.029306116 -0.10601654 0.11162204 -0.031005679 -0.037499625 -0.03228991 0.17616503 0.112819426
-0.04118691 0.27061445 -0.093230024 -0.0068439534 0.056848545 -0.12554507 0.02368281 0.15927583
-0.091561966 0.02868588 0.085004166 -0.052635446 0.020252926 0.06094851 0.046478115 0.026637932
0.0070383507 -0.03273427 -0.09359859 0.0018390684 0.0043342463 0.14097454 -0.06952176 0.09135756
0.121943176 -0.043686047 0.13165186 -0.029374218 -0.0101885805 -0.10587982 -0.028886447 0.027219927
-0.07028266 -0.11040624 -0.13471106 0.10263103 -0.033930935 0.13491197 -0.12347532 0.006474532
-0.13980575 -0.13994272 -0.0822586 0.058662493 0.109966174 0.11628883 -0.06406232 0.004507018
-0.013388371 -0.040116027 0.09016197 0.1572536 0.07852737 0.07767239 -0.14661618 -0.053652573
-0.04708484 0.11809305 -0.150176 -0.033053607 0.037874572 0.07562975 0.0029987346 -0.00303108
-0.006071559 -0.017327264 -0.020246401 -0.017490821 0.044742864 -0.007677574 -0.022071974 0.026283603
0.11027425 -0.14068946 0.009034306 -0.09362747 -0.10417249 -0.05879192 -0.01908647 -0.08621683
-0.06764553 0.07577311 -0.084070645 -0.09272958 0.13889448 0.11183427 -0.11736755 0.10565035
-0.006455575 -0.010473625 -0.015855558 -0.02504208 0.15874961 0.035274286 0.08834857 0.024206799
0.060292985 -0.00015101332 -0.12270003 0.0048889667 -0.1182682 -0.009955769 0.051178582 -0.128461
0.06973891 0.016583074 -0.15038422 -0.11646408 0.07439447 -0.03981495 -0.068551496 0.008527534
-0.0024788743 -0.029314542 -0.10943047 0.025515985 0.008578651 -0.058580138 -0.07963017 0.057360135
-0.109752 0.009457616 0.021237586 -0.019235112 0.061366826 0.0442995 0.1313305 0.14018375
0.01065352 0.07164443 0.07930883 0.013605979 0.0041987216 0.06678455 -0.07531803 0.08773135
0.022557199 0.11400866 -0.044592425 0.10555064 0.007954739 0.14954884 -0.03489754 -0.022511218
-0.14114709 -0.10847749 0.05294081 -0.0008228655 -0.0051140655 0.08294211 -0.14752409 0.2618647
0.11740642 -0.16372405 -0.13162076 0.08696356 -0.07748999 0.15461323 0.063780546 0.08632459
0.14934036 -0.028253105 -0.027203886 -0.04810656 -0.01865453 -0.13849975 -0.08072247 0.14731249
0.0010570961 -0.100642115 0.13127393 0.110879086 -0.0014595916 -0.08310645 -0.0445826 0.018719105
00000000: c2be 3d3d b7ff 953c 4c99 e33d ceeb 303d
00000010: d049 2d3d cb5d 4fbc 906c 963d 43d7 263d
00000020: 9aba f7b8 731d 8d3b 0c67 b7bd f503 353d
00000030: b2c8 80bd 3d7d 283c b1a6 00be 4ef5 a83d
00000040: 6113 f0bc 331f d9bd 199a e43d 9fff fdbc
00000050: 3599 19bd 6d42 04bd 9b64 343e df0d e73d
00000060: 9bb3 28bd fa8d 8a3e 62ef bebd 3e43 e0bb
00000070: 05da 683d e38e 00be 7402 c23c 3419 233e
00000080: d784 bbbd a7fe ea3c aa16 ae3d 4498 57bd
00000090: 77e9 a53c 25a5 793d d65f 3e3d cb37 da3c
000000a0: f7a1 e63b 5f14 06bd 9eb0 bfbd e50c f13a
000000b0: 4b06 8e3b a15b 103e 6d61 8ebd ac19 bb3d
000000c0: 58bd f93d 24f0 32bd bfcf 063e 33a2 f0bc
000000d0: 01ee 26bc 85d7 d8bd 45a3 ecbc 53fc de3c
000000e0: 5bf0 8fbd ab1c e2bd b2f1 09be 3830 d23d
000000f0: 2afb 0abd 5d26 0a3e a1e0 fcbd 5028 d43b
00000100: 3d29 0fbe 254d 0fbe 3277 a8bd 1548 703d
00000110: f235 e13d d728 ee3d 1b33 83bd 9baf 933b
00000120: e65a 5bbc b450 24bd d7a6 b83d 1607 213e
00000130: f5d2 a03d b412 9f3d 8d22 16be cdc2 5bbd
00000140: 08dc 40bd c5da f13d bdc7 19be 3863 07bd
00000150: 5e22 1b3d c5e3 9a3d 6b86 443b 15a5 46bb
00000160: eef3 c6bb e8f1 8dbc c8db a5bc e948 8fbc
00000170: 4b44 373d 2994 fbbb 49d0 b4bc b650 d73c
00000180: 77d7 e13d e610 10be a004 143c c2bf bfbd
00000190: 6358 d5bd cccf 70bd 3b5b 9cbc 7392 b0bd
000001a0: bd89 8abd ef2e 9b3d 3b2d acbd 02e9 bdbd
000001b0: 5b3a 0e3e 5e09 e53d 665e f0bd 365f d83d
000001c0: 4a89 d3bb 9199 2bbc 84e3 81bc 0c25 cdbc
000001d0: 428f 223e c57b 103d 18f0 b43d 564d c63c
000001e0: c7f5 763d 5459 1eb9 274a fbbd a033 a03b
000001f0: 9936 f2bd 861d 23bc a2a0 513d 488b 03be
00000200: 46d3 8e3d 3ad9 873c 52fe 19be b884 eebd
00000210: 215c 983d 0015 23bd ba64 8cbd 12b7 0b3c
00000220: 9c74 22bb 0d25 f0bc 151d e0bd e606 d13c
00000230: 788d 0c3c baf1 6fbd 2415 a3bd 76f2 6a3d
00000240: a8c5 e0bd 1ef4 1a3c 72fa ad3c f492 9dbc
00000250: c85b 7b3d 6473 353d 817b 063e 548c 0f3e
00000260: 1a8c 2e3c 51ba 923d ab6c a23d 9deb 5e3c
00000270: 6e95 893b 57c6 883d 5740 9abd 7eac b33d
00000280: e0c9 b83c 5f7d e93d 8ca6 36bd ef2a d83d
00000290: 9854 023c 5523 193e b9f0 0ebd 7269 b8bc
000002a0: dd88 10be 7229 debd 76d8 583d 92b5 57ba
000002b0: e493 a7bb 8edd a93d 8e10 17be 2113 863e
000002c0: c772 f03d 47a7 27be 98c7 06be f319 b23d
000002d0: 12b3 9ebd ee52 1e3e 609f 823d f2ca b03d
000002e0: aeec 183e 0e73 e7bc afda debc 620b 45bd
000002f0: 63d1 98bc e1d2 0dbe d351 a5bd 16d9 163e
00000300: 428e 8a3a 741d cebd ac6c 063e 9314 e33d
00000310: c44f bfba b733 aabd 3f9c 36bd cf58 993c

fc.weight f4 [1, 50]
0.10513849 0.10815586 0.14395571 -0.16381551 0.078171805 0.1329302 0.007809563 -0.13952672
0.025008284 0.160377 -0.013001483 0.14523767 -0.16251072 0.13277218 0.009025981 -0.12583186
0.1568147 -0.03966615 0.10143445 0.08914865 -0.12505047 0.12993616 0.09378545 0.16508822
-0.039973084 -0.13042414 -0.0070558935 -0.10303594 -0.03674428 -0.0045224125 -0.0014090985 -0.10290645
0.07754592 -0.0049897144 -0.1673412 -0.006902447 -0.075881064 -0.04977625 -0.12307751 0.13415661
-0.08532505 0.08885652 -0.09607265 0.16170907 0.09176441 0.1284841 -0.14121076 -0.03415788
0.18033385 0.14682427
00000000: d952 d73d d280 dd3d 2069 133e 41bf 27be
00000010: 8a18 a03d db1e 083e 5de7 ff3b 18e0 0ebe
00000020: 2cde cc3c de39 243e 2c04 55bc 2fb9 143e
00000030: 3669 26be 6ef5 073e b5e1 133c 11da 00be
00000040: 0894 203e f978 22bd ddbc cf3d 9193 b63d
00000050: 3b0d 00be fc0d 053e 9612 c03d e30c 293e
00000060: d1ba 23bd e88d 05be 2035 e7bb 8204 d3bd
00000070: 2c81 16bd bf30 94bb 80b1 b8ba 9ec0 d2bd
00000080: 65d0 9e3d c280 a3bb 7e5b 2bbe ec2d e2bb
00000090: 8867 9bbd 2ee2 4bbd 1010 fcbd 5a60 093e
000000a0: e6be aebd 68fa b53d bdc1 c4bd 1097 253e
000000b0: fbee bb3d 5691 033e 8e99 10be 22e9 0bbd
000000c0: 70a9 383e 1a59 163e
